data/control/bignode.pth (torch, 41651 bytes, 38 tensors)

diffop.mp1.message_int_int.weight f4 [16, 2]
000000 37 d0 00 3d f5 59 1d bf 35 e3 ac 3e c5 77 99 3e
       0.03144857 -0.6146539 0.33767095 0.2997419
000010 83 39 0b 3f d5 24 a7 be bf 79 06 be a6 88 b8 bd
       0.5438463 -0.32645288 -0.1313238 -0.090104386
000020 58 ab 9a be 7d a0 80 3e 86 ea a8 3e 49 54 b9 be
       -0.3020885 0.25122443 0.32991427 -0.36197117
000030 fe f8 ae 3e 10 33 ca be 5b b9 04 3e d8 96 cd 3e
       0.3417434 -0.39492083 0.12961332 0.40154147
000040 ae ae 9b 3e 83 f5 0e bf 46 a1 c9 be 6e dd e0 3e
       0.30406708 -0.5584337 -0.39380854 0.43918937
000050 3f bd ca bd 29 46 4e 3e ef 7d 04 bf 96 7f b5 bb
       -0.09899377 0.20143951 -0.5175466 -0.005538891
000060 51 86 89 3d 5a cc 07 bf 5a 92 b9 be a5 1d 87 be
       0.06715072 -0.5304619 -0.3624447 -0.26389804
000070 6e 25 1b 3f 38 84 02 3f e5 c1 69 3e 90 12 d4 3e
       0.6060399 0.50983 0.22827871 0.41420412

diffop.mp1.message_int_int.bias f4 [16]
000000 16 ee 64 3e 4e e7 9f bc ee db e2 3d 19 a6 2f 3e
       0.22356448 -0.019519474 0.110771045 0.17153205
000010 57 63 20 bf 04 00 bb be a8 c1 9d 3e d9 52 0d 3c
       -0.6265158 -0.3652345 0.3081181 0.008625709
000020 55 8e 8d be 38 20 e2 3e 29 1c f0 3d 27 98 f2 be
       -0.27647653 0.44165206 0.11724121 -0.47381708
000030 57 6e a2 3c 92 fa 18 3f d7 77 c0 3e 48 fe 9c be
       0.019828005 0.5975734 0.3759143 -0.3066275

diffop.mp1.message_bound_int.weight f4 [16, 2]
000000 e6 ed d0 3e 84 4d 4c 3e 0f 8f 0a 3f d3 13 82 3e
       0.40806502 0.19951445 0.5412454 0.2540575
000010 00 b2 0f bd fd e4 0b 3f a5 15 9e be 0d 1c 00 be
       -0.035081863 0.54646283 -0.30875888 -0.125107
000020 bc a7 5c 3e 8b ce 9e 3e eb bc 24 bf f1 95 79 3d
       0.2154836 0.31016955 -0.64350766 0.06093401
000030 9d 86 0f 3f f1 a3 4a 3f 7a 9f c5 3e d7 da d1 3e
       0.5606478 0.79156405 0.38598233 0.40987274
000040 08 25 3e 3e 99 70 13 bf dc 70 01 3e c3 ad 40 be
       0.18568814 -0.57593685 0.12640709 -0.18816285
000050 80 c6 90 3d 01 7d f0 be 50 c2 c1 3d e8 aa e6 3c
       0.07069111 -0.4697037 0.0946089 0.028157666
000060 08 c9 6a 3e 5b ea cf be 70 51 75 3e ba 97 94 3e
       0.2292825 -0.40608487 0.23956847 0.29022008
000070 62 94 e0 3e 5a 64 d5 3e 90 5e 14 bd 02 fc 38 be
       0.43863207 0.41678125 -0.036222994 -0.18064883

diffop.mp1.message_bound_int.bias f4 [16]
000000 30 ef 25 bf e8 73 59 3e 24 ec 21 3f 63 e7 43 3f
       -0.64818096 0.21235621 0.63250947 0.76524943
000010 04 c0 e4 be 5f a5 af 3c 97 4c 40 be 02 61 e7 bd
       -0.44677746 0.02144116 -0.18779217 -0.112978
000020 65 ed cd be 12 8c 23 be 58 bb 3b bf f8 bb a3 3d
       -0.4022018 -0.15971401 -0.7333274 0.079948366
000030 69 9f 95 3f eb 04 ae 3e 3d 72 da be c8 45 83 3e
       1.1689273 0.33988127 -0.42665282 0.25639176

diffop.mp1.message_ctrl_int.weight f4 [16, 2]
000000 82 4a 0b 3f 08 f4 62 3f bf 18 13 bf 5a 0b 9d bd
       0.54410565 0.8865361 -0.57459635 -0.07668181
000010 e9 f9 dd 3c ac a6 a4 bd 7b 92 0a bf a0 89 0d 3f
       0.027096706 -0.08039603 -0.5412976 0.55288124
000020 da d3 29 3e b1 b6 ab 3c cc 86 4d 3d 73 18 aa 3e
       0.16584721 0.020961137 0.05017738 0.33221778
000030 ce fd 09 be 2a f1 b4 be 77 b6 db be ab 7d 6d 3f
       -0.13475725 -0.35340244 -0.42912647 0.9276988
000040 1f 03 f6 3e a6 87 ec bd ef 69 cf be 6f ad 37 3f
       0.48049256 -0.115493104 -0.40510508 0.71749014
000050 34 99 fd 3e 84 1d ef be bd ed 18 bf 5a 5a 58 bc
       0.49530947 -0.46702206 -0.5973776 -0.013205135
000060 d7 55 8c bd 21 1a 58 be 39 96 03 bf a0 9b 48 be
       -0.0685231 -0.21103717 -0.51401097 -0.19590616
000070 dc a4 36 3f 9c ef b6 be 61 dc d0 bd 16 ec ab be
       0.71345305 -0.35729682 -0.10198284 -0.33578557

diffop.mp1.message_ctrl_int.bias f4 [16]
000000 bf c4 8c be 7b 6c b8 3e 4d e5 78 3e 5c 7b e8 3e
       -0.27493855 0.36020264 0.24306221 0.45406616
000010 8c a9 7c be 5e 78 1f bf 8c 2f 04 3f 92 df eb be
       -0.24674052 -0.6229304 0.5163505 -0.46069008
000020 62 3a 8b be 3f 59 ce be 31 e3 76 be 30 35 b9 3e
       -0.2719298 -0.40302464 -0.24110104 0.3617339
000030 01 a9 3b 3f 5f cf 06 bd e3 23 90 bd a3 97 dc be
       0.73304754 -0.03291261 -0.07038095 -0.4308444

diffop.mp1.message_bound_bound.weight f4 [16, 2]
000000 26 5a dd 3e 64 96 71 3e 9f e8 05 3f c0 13 4e bc
       0.4323284 0.23592526 0.52308077 -0.012577951
000010 21 97 12 3f 66 e4 bb 3e a0 66 00 be 1c 0e 02 bf
       0.57261854 0.36697692 -0.12539148 -0.5080278
000020 a0 df cb 3d b6 7e b9 3e c8 0f 01 3e ac 63 04 3e
       0.099547625 0.36229485 0.12603676 0.12928647
000030 a3 05 31 3f e4 b2 c5 be 04 c5 0c 3e 49 b8 1b 3f
       0.69149226 -0.38613045 0.1374703 0.6082807
000040 b8 bb 1e bf 24 dc c0 be 49 83 be be 00 26 03 be
       -0.62005186 -0.37667954 -0.37209538 -0.12807465
000050 60 17 9b 3c 97 03 11 3f a8 ea 52 3e 58 b9 0a bf
       0.018932045 0.566461 0.20597327 -0.5418906
000060 01 4d 1e 3f 78 f0 49 3e d5 a1 da be aa 20 d3 3e
       0.6183625 0.19720638 -0.42701593 0.41235858
000070 fe 54 f3 3e 20 0a 5e 3d 1e 42 ff 3e 76 81 d5 3e
       0.4752578 0.054208875 0.4985513 0.41700333

diffop.mp1.message_bound_bound.bias f4 [16]
000000 88 66 8a 3e 08 3c 58 3e 23 a7 25 3d 15 c3 6b be
       0.2703135 0.2111665 0.040442597 -0.23023637
000010 53 93 28 bf f5 79 63 3f 14 1c 52 3e 1d c6 73 be
       -0.658498 0.88857967 0.20518523 -0.23806043
000020 79 1c c3 be 7e 71 c1 3d 76 44 10 3f c1 d1 27 be
       -0.3810766 0.09445475 0.56354463 -0.16388609
000030 69 c7 1e be f1 a9 c3 be ec 45 cd 3e 96 97 6a 3e
       -0.15505756 -0.38215593 0.4009241 0.22909388

diffop.mp1.message_ctrl_ctrl.weight f4 [16, 2]
000000 95 51 ae be 7b 9c 06 bf f5 c7 07 3f d2 90 bb 3e
       -0.34046617 -0.5258252 0.53039485 0.36633927
000010 89 57 36 bf 39 30 20 bf f6 b9 39 3e e0 e6 ba 3e
       -0.7122732 -0.6257358 0.18137345 0.3650427
000020 e8 49 cb 3e 9a 3c 80 be f9 ff 80 3e ed 83 96 3d
       0.39704823 -0.25046235 0.25195292 0.073493816
000030 a0 4d d9 bc 9b 39 3b 3b d3 69 13 3f b7 d3 6b be
       -0.026526272 0.002856827 0.5758335 -0.23029982
000040 0c 38 cc bd 78 cc bc be 05 97 10 bf 41 7c 19 3f
       -0.099716276 -0.36874747 -0.5648044 0.5995522
000050 46 db 18 3f c4 1d 20 bf d8 bf de be da 1a 85 3e
       0.59709585 -0.6254542 -0.4350574 0.2599705
000060 fe 72 47 3e d7 aa a1 3e 7b 35 c6 3e 7f 2e ec 3e
       0.1947746 0.31575653 0.38712677 0.46129224
000070 11 a9 e3 3c 4d f3 a2 3c 4a 86 50 3e a8 87 c9 be
       0.027790578 0.019891405 0.20363727 -0.3936131

diffop.mp1.message_ctrl_ctrl.bias f4 [16]
000000 20 e7 8d be e4 5a 42 bf e0 1d f8 3e 7b 28 a3 3e
       -0.27715397 -0.7591994 0.48460293 0.31866822
000010 41 2a aa 3d 30 e2 31 3e a4 56 cd 3e 46 63 0b 3f
       0.083088405 0.1737144 0.40105164 0.54448354
000020 c5 cb 15 bf 4c 12 1a bf ac 03 9d 3e 9f 6a 31 bf
       -0.5851405 -0.6018417 0.30666864 -0.69303316
000030 32 9b f7 3e f5 28 c2 be 85 c5 1b be 46 02 e3 3c
       0.48360592 -0.37921873 -0.15212066 0.027711045

diffop.mp1.interior_msg_W.weight f4 [32, 16]
000000 e3 54 4f be 8b e3 11 3e 41 67 fb 3d a5 99 a2 bc
       -0.20247225 0.14246957 0.122755535 -0.019848654
000010 1d 0a 07 3e 50 2a 63 3d 22 1a 65 3e ba 18 3b be
       0.13187452 0.055460274 0.2237325 -0.18271151
000020 82 cc 5c 3d 57 f8 51 be d6 ea c7 bd 6f 9a e2 3d
       0.05390597 -0.2050489 -0.09761588 0.11064612
000030 59 15 89 3d 56 4a 1f be 2e 3b 33 3e 02 c4 6b 3e
       0.06693525 -0.155557 0.17503044 0.2302399
000040 bf 80 0f be c9 9a dc 3d bd e4 25 be 9a f1 1c bd
       -0.14013956 0.107717104 -0.16200538 -0.038316347
000050 27 95 43 bd 8a ee 26 be 58 c3 16 3e 47 88 10 bd
       -0.047749665 -0.16301933 0.14722955 -0.035286214
000060 52 50 18 bd 4b 64 ac 3c 3f 1f 10 be be fe a9 3e
       -0.037185974 0.021043917 -0.1407442 0.33202165
000070 cc ae 3f bc 8d 47 8d 3d b8 d6 00 3d 35 a9 78 bd
       -0.01169939 0.06898413 0.03145477 -0.060708243
000080 72 54 8b 3d 8b cb 45 bd 1b 70 ab 3d be fa e8 bd
       0.06803216 -0.048289817 0.08370992 -0.1137595
000090 1e 24 84 3e 8d df 83 be 04 4a 60 3e e1 0c 9a 3e
       0.25808805 -0.25756493 0.21903235 0.3008795
0000a0 95 52 02 be c5 63 0e 3e b6 84 ea bd dc 8a 86 bc
       -0.12726815 0.13905247 -0.11451094 -0.016423635
0000b0 1f a7 c5 3c 15 38 2a 3e 7f 57 dd 3d f3 35 35 be
       0.024127541 0.16622956 0.10807704 -0.17696361
0000c0 9c ce 05 be 02 c0 f7 3d cd 08 a4 3e 5e fc 3a 3d
       -0.13067096 0.120971695 0.32037964 0.045650832
0000d0 f9 1d 42 be 7d 5b 3a be bf ac 24 3e 29 d1 6d be
       -0.18956746 -0.18198963 0.16081522 -0.2322432
0000e0 df 7d 1c be f4 1a 01 3d e3 56 33 bd 22 7c 58 be
       -0.15282391 0.031519845 -0.043784034 -0.21141103
0000f0 0a 93 ff bd f7 b1 16 3e 61 d4 0f 3e 63 c3 75 be
       -0.12479217 0.14716326 0.1404586 -0.24000315
000100 ef 5b 82 be 2f 8b 68 3e eb 71 ec 3d ae 19 64 be
       -0.25460765 0.22709344 0.11545166 -0.22275421
000110 01 bf 77 be 72 60 1c be b7 c2 31 3d f6 4a b3 bd
       -0.24193956 -0.15271166 0.043398585 -0.08754532
000120 58 03 30 be 05 2e 97 be ae 73 22 3e 48 eb 70 be
       -0.17188776 -0.29527298 0.15864441 -0.23527253
000130 bd c7 88 3d 36 b4 2c be 6f 92 83 3e ae ba b2 bd
       0.06678722 -0.1686562 0.25697657 -0.087270126
000140 5a b9 be bd 08 75 05 be 52 5a d1 bd 8d fb 8b be
       -0.09312697 -0.13032925 -0.10222305 -0.27340356
000150 cc 13 fd 3d 02 f8 be bc 6e 07 18 3e 05 cc ce bd
       0.123572916 -0.023311619 0.14846584 -0.100975074
000160 3a 6c 3e be 3c c1 04 be 23 77 7a 3c e1 66 b1 bd
       -0.18595973 -0.12964338 0.0152871935 -0.08662201
000170 5c bc 82 3d 58 7d 8b be 21 3f 8f 3e 61 e9 80 bd
       0.06383583 -0.27244067 0.2797785 -0.062945135
000180 54 3a 42 3e 01 ef fe bd 58 24 3e bd fe 8d 67 3e
       0.18967563 -0.1244793 -0.04642138 0.2261276
000190 fa 37 a4 bd 8e b0 50 be 7b 8c 16 bd 06 18 12 3d
       -0.08018489 -0.2037985 -0.036755066 0.03566744
0001a0 15 d5 00 3e 48 9d 09 be 61 b7 3d 3b da b5 3f 3e
       0.12581284 -0.13438904 0.0028948414 0.18721715
0001b0 d9 89 60 3d 04 3a 89 be 09 fb 25 bd fe d9 40 3e
       0.05481896 -0.26802075 -0.04052261 0.18833157
0001c0 e9 0c 00 3e 5d b1 54 be 4f b7 9c bd 9a f6 6a 3e
       0.12504925 -0.20770784 -0.07652151 0.22945634
0001d0 2b a5 01 be 72 c9 82 be f5 17 e2 bd 69 0b 18 bc
       -0.12660663 -0.25544316 -0.11039726 -0.009280064
0001e0 c6 46 8b bd c6 b4 aa 3e 14 14 92 3b d1 e0 dd bb
       -0.06800608 0.33341044 0.00445796 -0.006771185
0001f0 12 2c e4 bd 3a 81 6a 3d c6 f7 b8 be 49 43 23 bd
       -0.11141218 0.057252146 -0.36126536 -0.03985909
000200 e9 bf 5a 3d 09 d3 6d bd 60 d2 a5 bc 9a 1d 64 3e
       0.053405676 -0.058062587 -0.020241916 0.22276917
000210 14 03 36 3e 25 a1 8c bd f6 7a 02 3e 0b 96 32 3e
       0.17774612 -0.068666734 0.12742218 0.1744005
000220 91 15 cd bd 84 18 16 be 79 8a 9c 3c 04 a8 b3 bc
       -0.10013879 -0.1465779 0.019108998 -0.021930702
000230 b5 dc 8e be 63 eb 73 be 4f b3 c5 bd 76 99 78 bd
       -0.2790276 -0.23820262 -0.09653341 -0.060693227
000240 40 60 73 bd e9 03 5f 3d 87 b8 a4 bd 8a ee 2f be
       -0.059417963 0.05444709 -0.08043008 -0.17180839
000250 e0 95 8c be 6a 05 35 be a9 ad ae 3d 0b 08 d5 3d
       -0.27458096 -0.17677847 0.08529217 0.10401925
000260 c0 1b 4c 3e bc 7d 53 be a0 05 b1 3d b0 1e c7 3d
       0.19932461 -0.20653433 0.08643651 0.0972265
000270 ae eb b5 3d 08 c3 59 3e 7f c7 ed 3d e7 81 9a be
       0.08882843 0.21265805 0.116103165 -0.30177233
000280 8d f8 94 3d 89 cf 91 3c 0c 27 74 be e1 c0 39 3d
       0.0727397 0.017799156 -0.2384302 0.04534996
000290 e1 2a 66 be 7b d7 91 bd 6d a7 3a be d9 52 bf 3d
       -0.22477295 -0.07121178 -0.1822793 0.09341974
0002a0 bb 40 86 be 8e b4 dd 3d 37 90 36 3e f9 3f 8d 3e
       -0.2622126 0.10825454 0.17828451 0.2758787
0002b0 59 d4 58 3e 43 1d 66 3d 36 af ab be 32 f4 21 be
       0.21174754 0.05618025 -0.33532113 -0.1581581
0002c0 9c 79 33 3e fc 75 d1 3d c0 ae 37 be 8a 71 03 be
       0.17526859 0.10227582 -0.17937756 -0.1283628
0002d0 19 4a 3f be 9d ac e5 3d e5 9f 8b 3c 88 b2 2e bc
       -0.1868061 0.11214564 0.017044017 -0.010662682
0002e0 3b 13 5c 3c ad a2 26 3e 2e 62 82 bd 36 56 9b 3e
       0.013432319 0.16272993 -0.063663825 0.3033921
0002f0 34 c1 42 be 84 f3 d0 3c 3f 3e ef be 17 56 6b bd
       -0.19019014 0.025506742 -0.46727178 -0.05745515
000300 64 6f 1f 3e c0 ec 00 3e 5d c3 bb 3e 35 de a0 3d
       0.15569836 0.12590313 0.36672488 0.07854883
000310 9b 52 83 be d6 56 76 3e c9 92 fe 3d d1 f6 3e 3e
       -0.2564896 0.24056563 0.12430341 0.1864884
000320 07 73 8e 3d 8b b7 0f 3e 10 2a 93 3d bb 99 2b 3e
       0.069555335 0.1403486 0.07185757 0.16757862
000330 1d 26 7d 3e a8 34 5e bc c0 b4 1d be 19 82 b0 bd
       0.2472157 -0.013562359 -0.15400982 -0.08618564
000340 f6 d9 21 3e ce 9e b6 bd 20 a6 31 3d 8a d7 ba be
       0.15805802 -0.08917008 0.04337132 -0.36492568
000350 12 69 df 3b ab 1f 81 3e 27 f1 72 be 3b af 11 3e
       0.0068179453 0.25219473 -0.23724805 0.14227001
000360 95 53 56 3e 19 8a be be 70 9c 98 3e bf cb a0 be
       0.20930322 -0.37214735 0.29806852 -0.31405446
000370 a3 92 bd ba 9f 7b c8 bc e9 18 a6 3d dd 1e 92 3e
       -0.0014463257 -0.02447301 0.0811022 0.28539172
000380 ba c8 3d 3e 0a 36 33 ba b7 c9 58 3c 56 2b 5c 3e
       0.18533602 -0.00068363606 0.013231686 0.21500906
000390 4f 89 82 3e 7a ab ba be c3 88 2e 3e b9 54 0a 3d
       0.25495383 -0.3645895 0.17044358 0.033772204
0003a0 fd 96 c0 bd f8 0b bc 3e 4e b7 bc bd 91 86 1b 3e
       -0.09403799 0.3672788 -0.0921465 0.15188052
0003b0 6d e4 33 be 77 1e db bd d5 6c 14 bd f3 92 1f 3e
       -0.17567606 -0.1069917 -0.036236603 0.155834
0003c0 87 d9 e8 bd 93 70 07 3e d9 f4 ce 3d ab 1b 9b 3d
       -0.11369615 0.13226537 0.10105295 0.075736366
0003d0 4b 69 01 be 49 8d d6 3d 4d 72 92 3d 67 cd 73 3e
       -0.12637822 0.10476167 0.071507074 0.23808824
0003e0 ea 83 40 3d 36 b5 30 bd 17 5e 87 3d df 3c 41 3e
       0.047000803 -0.043141566 0.06609743 0.18870877
0003f0 3d 34 6c be 50 ad 25 3e 80 9e 03 3d 60 22 c9 bd
       -0.23066802 0.16179395 0.03213358 -0.0982101

diffop.mp1.interior_msg_W.bias f4 [32]
000000 a2 ce 19 3e 61 00 41 be 53 f7 7a be 88 0a 82 bb
       0.1502023 -0.18847801 -0.24508409 -0.0039685406
000010 d5 28 88 bc 32 88 a6 be 2c bf 22 be 26 d9 9b 3d
       -0.016621033 -0.32525784 -0.15893239 0.07609777
000020 64 03 3b be 76 65 d0 3c bb 79 0e be ab 3e 96 be
       -0.18263012 0.025439005 -0.13913624 -0.29344687
000030 e4 2c 1a 3e 48 69 69 be 3e 7c 11 be bc 04 5a be
       0.15056187 -0.22794068 -0.14207551 -0.21290869
000040 30 fc c3 3d 7f 6c c9 be b9 75 71 be e6 b6 96 3e
       0.09569585 -0.39340588 -0.23580064 0.29436415
000050 e3 6c 20 be 1c 80 00 bd 9d c4 2d be 6f 42 ae 3e
       -0.15666537 -0.031372175 -0.16969533 0.3403506
000060 76 ba b8 3d a0 f7 3e be 3c 05 a3 bd 0c 28 3f be
       0.090199396 -0.18649149 -0.07959983 -0.1866762
000070 1c aa 3f 3e 7a 2f fe be 68 7f f4 bc d3 2b 82 be
       0.18717235 -0.49645597 -0.029845908 -0.2542406

diffop.mp1.interior_self_W.weight f4 [32, 1]
000000 70 52 90 be 93 5c 4b 3f 3f 92 76 bd c6 14 80 be
       -0.28187895 0.7943813 -0.060198065 -0.2501585
000010 a6 29 37 bf d6 56 39 bd 2b a3 ab 3b a6 24 1e 3f
       -0.71547925 -0.04524883 0.005237957 0.6177467
000020 ef fd 6f be ae d6 a2 3e c8 6f 4e 3f 5c 38 31 3f
       -0.23436712 0.31804413 0.80639315 0.6922662
000030 ed ef 0f 3c d5 75 4d bf a2 ca df 3e b6 06 56 be
       0.00878523 -0.8025792 0.43709284 -0.20900998
000040 3c ea cc 3e b3 79 4e 3e bf da 57 3e fe 9f a1 3e
       0.40022457 0.20163612 0.21079539 0.31567377
000050 c0 62 24 bf 6d f3 57 3e d3 12 ee 3e 58 56 3f 3f
       -0.6421318 0.21088953 0.46498737 0.74741125
000060 e2 d8 10 3f 45 81 2d 3f c0 da 88 3d b8 c2 5c 3f
       0.56580937 0.67775375 0.06682348 0.8623462
000070 46 35 4a 3f 21 f8 9f 3d d7 30 1d bd 02 21 e0 be
       0.7898754 0.07810999 -0.038376655 -0.43775183

diffop.mp1.interior_self_W.bias f4 [32]
000000 67 81 15 3f 43 7e f4 be a9 1f 4c 3f 70 6d 0d bf
       0.5840058 -0.4775258 0.7973581 -0.55245113
000010 2a e7 f8 be 1a ff a5 3e a2 96 c4 be 46 cf ac 3d
       -0.48613864 0.3242119 -0.38396174 0.08437972
000020 fe 4a c5 3e 33 22 32 bf d6 a2 64 bf 59 f2 5d 3f
       0.38533777 -0.69583434 -0.8931097 0.8669792
000030 f6 05 41 3f 9f 84 07 3f f2 2c dd be 2a e6 52 bf
       0.7539972 0.5293674 -0.43198353 -0.8238245
000040 fa 57 19 3f fe 0f 51 3f dd 56 05 3f 6c 8a f1 3d
       0.59899867 0.8166503 0.5208567 0.1179398
000050 47 80 90 bf 73 7e 27 bf ce de 1e bf f6 24 32 bf
       -1.1289147 -0.6542732 -0.6205872 -0.6958765
000060 08 47 6b 3e b9 21 1f 3f b7 23 da 3e 13 f0 59 3f
       0.22976315 0.6216083 0.42605373 0.8513195
000070 2e bd 18 3e 41 ba 9c 3d 71 97 4d bf 54 68 81 3d
       0.14915916 0.076527126 -0.80309206 0.06318727

diffop.mp1.boundary_msg_W.weight f4 [32, 16]
000000 d9 eb b0 3e 2a 8e 6b 3e 6f 82 5a 3e ca 6f cb 3d
       0.34554937 0.2300345 0.21338819 0.099334314
000010 f1 d3 b2 be 9d 2f a2 bd 42 cb 20 be 86 86 b7 bd
       -0.34927323 -0.07919238 -0.15702537 -0.08961205
000020 f1 76 63 bd 3e 5b 59 3e 0f 5e ac 3e 2f a2 af be
       -0.055533353 0.21226212 0.3366551 -0.34303424
000030 4c 91 38 be e4 62 20 3e ad 9a 94 3e 4f af 8c 3e
       -0.18024176 0.15662724 0.29024258 0.274775
000040 bd d1 12 be 94 43 2a be 91 f9 a2 be 87 75 98 3c
       -0.14337821 -0.16627342 -0.3183103 0.018610729
000050 fa 94 74 3e 97 cc ac 3d 34 7b 02 bd 0d fa d3 bd
       0.23884955 0.0843746 -0.031855777 -0.10350428
000060 74 78 e9 bd 45 64 ac be 7c 37 14 3e ef 99 77 3e
       -0.11399928 -0.3367025 0.1447429 0.24179815
000070 f3 92 5c 3d 2c cf 4d 3e 8f fa 7f be 0e e3 54 be
       0.05385108 0.20098561 -0.24997924 -0.2078974
000080 da f4 d8 bd ea bc 9c 3c f1 5a 17 3e cf f1 cd bd
       -0.10593577 0.01913305 0.14780785 -0.10055887
000090 b9 37 dd bd 04 9d a0 3e c5 39 13 3d 15 90 a0 bc
       -0.10801644 0.31369793 0.035943765 -0.019599954
0000a0 92 9f 6e be 81 f7 80 3e 77 41 73 3d 44 8f da bd
       -0.23303059 0.2518883 0.059388604 -0.10671857
0000b0 98 96 09 3e fa 0d 12 3e ac 50 be bc f9 7d 46 3e
       0.13436353 0.14263144 -0.023231827 0.19383992
0000c0 c3 61 70 3e 14 df 04 be 52 b8 49 bc 99 ad 3f 3e
       0.23474793 -0.12975723 -0.012312012 0.18718566
0000d0 53 c0 6b 3e 55 71 32 3c a8 8e be bc 4a c5 9d 3d
       0.23022585 0.010891278 -0.023261383 0.077036455
0000e0 3b 57 0e 3e 69 38 8a 3d 91 00 50 be 66 cc 86 be
       0.13900463 0.06749041 -0.20312716 -0.2632782
0000f0 9c 8a 75 be 78 42 4a 3d bf 1e 75 3e 10 68 a1 bd
       -0.23978657 0.049379796 0.2393751 -0.078811765
000100 c3 ec 85 be a4 10 81 3d 1d 9e 07 be 03 12 5f 3b
       -0.26157197 0.06302002 -0.13243909 0.0034037835
000110 7d 18 d8 3e aa 57 95 bd d0 62 84 bd 0d 64 63 3e
       0.42206183 -0.07292111 -0.064641595 0.22206135
000120 51 3e bc bd 73 4e c9 bd 51 67 2d 3e 48 10 35 3e
       -0.091915734 -0.09829416 0.16933943 0.17681992
000130 1a 96 98 3e 36 98 b4 3d 6f 69 65 be 45 c4 98 bd
       0.29802018 0.088180944 -0.22403501 -0.074593104
000140 4d 28 db bd ef f7 8c be 85 dc 0b be f0 43 8c bd
       -0.10701046 -0.27532908 -0.1365834 -0.068488955
000150 8d 6b 07 3f 9f 5c 9f be 39 dd 07 be b3 fb 1b 3e
       0.52898484 -0.31125352 -0.13267983 0.15232734
000160 79 41 34 3d 05 04 fe b8 d8 17 82 3d 41 0a 66 3e
       0.044007752 -0.000121124125 0.06352204 0.22464849
000170 a6 11 f1 3d 05 a4 8b 3e de 87 35 be 94 46 0e be
       0.11770944 0.27273574 -0.1772761 -0.13894111
000180 3d 2d 88 be 1c fa 9f 3c b5 03 d3 bd f6 80 46 3e
       -0.26597014 0.019528441 -0.103034414 0.19385132
000190 18 88 01 3f 99 f1 59 be 6e f9 5d 3c 29 cd 1b 3e
       0.5059829 -0.21283568 0.013548238 0.15214981
0001a0 48 3f 8c 3d 6b 07 ba be 39 b2 a4 be dc e7 b7 3e
       0.068480074 -0.36333784 -0.32167223 0.35919082
0001b0 ba ad a9 3e 07 c0 a8 bd dc 5f bf be 5a b7 8d be
       0.33140355 -0.08239751 -0.37377822 -0.2767895
0001c0 6e cc 27 be 4d d0 b7 3c d6 da 73 be 77 85 9f 3d
       -0.16386577 0.022438193 -0.23813948 0.07789128
0001d0 e5 3c e8 3e cd 01 3b be 4d 3d 32 be f6 71 fa 3d
       0.4535896 -0.18262406 -0.17406197 0.122287676
0001e0 f2 27 03 be 42 da ab be 52 0e 4c 3e ca c5 06 3d
       -0.12808207 -0.33564955 0.19927338 0.03290347
0001f0 fa 7d bf 3c e6 6c 5b be c0 b3 bc 3c d8 6b 0d bc
       0.0233755 -0.2142826 0.02303493 -0.008631669
000200 bc 43 ca bd f5 47 96 bd d8 c1 a7 bd 5d 20 d2 bd
       -0.098762006 -0.073379435 -0.0819127 -0.10260079
000210 fa 9b 7d be bf 03 07 bd a2 e3 04 be 79 ae 1d bc
       -0.24766532 -0.032962557 -0.1297746 -0.009624117
000220 5e ee 9b bd b9 23 a0 3d b6 07 3b bd 18 d9 4f bc
       -0.07613824 0.078193136 -0.04566165 -0.0126860365
000230 21 91 87 be e7 23 a3 be c7 da 3d 3e 01 d0 b5 bd
       -0.26477912 -0.3186333 0.18540488 -0.08877564
000240 da 14 1d 3e ff 2b d0 bd 60 0c 86 3e 0e 79 61 3c
       0.15339985 -0.101646416 0.26181316 0.013761772
000250 40 2a 7e be 40 c2 94 3e 65 e8 1b 3e 0f a5 ab be
       -0.24820805 0.2905445 0.1522537 -0.33524367
000260 91 c3 90 be 24 12 f9 3d 23 00 9a 3e 3b 06 4d be
       -0.28274205 0.12161663 0.3007823 -0.20021908
000270 63 40 44 be 46 fa 95 3d 74 c6 33 bd e7 fb 34 3e
       -0.19165187 0.073231265 -0.04389043 0.17674218
000280 3a a5 e0 bd 3b 4f 61 bd 0a 30 a1 3e 08 de b4 bd
       -0.109690145 -0.0550072 0.31481963 -0.088314116
000290 68 a8 2f bf 52 d8 b2 3c 6b 6a c4 bd b5 81 a7 bd
       -0.6861634 0.021831665 -0.0959061 -0.081790365
0002a0 ba 2d 85 be ea a2 9e 3e 92 88 02 be 31 04 29 be
       -0.2601145 0.3098367 -0.1274741 -0.16505505
0002b0 6e 09 21 bd e6 97 2c be 36 10 55 bd 60 66 14 3e
       -0.039315633 -0.1685482 -0.052017413 0.14492178
0002c0 1f 4d 33 3e a7 bd 8b be ca ee 13 be 05 28 69 bc
       0.17509888 -0.2729313 -0.1444656 -0.014230733
0002d0 fb 98 f8 3d 3d a9 98 be e7 6d 91 be dd 3c 84 3e
       0.12138554 -0.2981662 -0.2840416 0.25827685
0002e0 bf 1f dd 3d b5 b2 79 be e4 44 a3 bd a6 1f 56 3e
       0.10797071 -0.24384578 -0.07972124 0.2091051
0002f0 f7 c8 98 3e a1 3f 4d 3e 36 f2 f3 3d de 9c 8d be
       0.29840824 0.20043804 0.119114324 -0.27658743
000300 b4 5e 18 be 2f 6b 28 be f3 54 8b bd 93 6a d4 b9
       -0.14879876 -0.16447137 -0.06803312 -0.00040515195
000310 66 be a6 3d 1f 1e 81 be 1c b7 97 bd 1f 2b 93 3d
       0.08141784 -0.25218293 -0.07407972 0.07185959
000320 63 3e 19 3e 3b 64 b2 3b 41 9a 31 bd ef 8e 89 3e
       0.14965205 0.0054440773 -0.04336 0.26866862
000330 3a b3 73 bd 25 e8 44 be 4e d7 19 bd fe 65 8c be
       -0.059497096 -0.19229181 -0.037558846 -0.27421564
000340 bb 49 27 be 77 b4 fe ba 49 9a ec 3d 33 ce d4 bd
       -0.1633672 -0.0019432445 0.11552865 -0.10390892
000350 da e2 76 be c4 eb 97 3e 44 63 66 3b 95 f3 9d be
       -0.24109975 0.29672062 0.0035154382 -0.308499
000360 b8 3a 7b be b2 7a 10 3e 24 42 f0 3d aa 1e c1 bb
       -0.24534118 0.14109305 0.11731365 -0.005893548
000370 7c 92 fc bd 0b aa 1f 3e ef 5d 0c 3e 76 5f 57 3d
       -0.12332627 0.1559221 0.13707708 0.052581273
000380 e0 bf 53 be 7f 00 55 be 33 6c 95 bd b7 8f 72 bc
       -0.20678663 -0.2080097 -0.07296028 -0.014804772
000390 ad 65 e5 3e b9 69 03 3e 56 b9 90 bd ad 0a a6 3e
       0.44804135 0.12833299 -0.070666 0.3243002
0003a0 7e ff 3e bd 01 f8 32 3d b4 83 dc bc 85 e0 cd bd
       -0.046630375 0.043693546 -0.02691827 -0.10052589
0003b0 1d 00 84 3d 85 33 85 3e 51 a2 55 be 3a 00 14 be
       0.06445334 0.2601587 -0.208627 -0.14453211
0003c0 da 9d 0c 3d c6 c7 b2 be 1e a8 9a be 4f e7 8a 3e
       0.034330226 -0.3491804 -0.30206388 0.271296
0003d0 db e1 8f 3e a3 aa b8 be 0b 1d 3e be 87 37 93 bd
       0.28102002 -0.36067685 -0.18565767 -0.071883254
0003e0 61 59 7b 3b 62 b3 9c be da 7f 7f bd d0 7a ef 3d
       0.0038352835 -0.30605608 -0.062377788 0.116933465
0003f0 99 b2 a3 3e ce 77 ef bc 45 04 82 be 0d f4 37 be
       0.31972197 -0.029231932 -0.25393882 -0.17964192

diffop.mp1.boundary_msg_W.bias f4 [32]
000000 6e 6c 73 bd 01 64 2f be f2 7d 0c be a1 de 46 3e
       -0.05942958 -0.17127992 -0.1371992 0.19420864
000010 ea 9a ef 3d b4 c7 fa 3d f1 6e 27 be 2a fc 68 bd
       0.116994694 0.122451216 -0.16350915 -0.056881107
000020 4c a5 da 3d c6 b2 9a 3e c8 cf da 3d 05 1f b6 3d
       0.10676059 0.30214518 0.106841624 0.08892635
000030 7a ae 61 be a0 59 29 3e 47 d6 09 3d 0f 4b 7b be
       -0.22039214 0.16538095 0.033651616 -0.24540351
000040 f9 64 e5 bd 17 35 58 3e 76 9f 2e be 69 c1 f3 bd
       -0.112009 0.21114002 -0.17053017 -0.119021244
000050 c2 b2 a9 3d e4 8c e7 3d e9 6b 6c bd e7 67 26 bd
       0.082860485 0.1130617 -0.0577201 -0.040626433
000060 7d 33 1d be eb 40 9b 3d a0 c3 57 3e be cc f2 3d
       -0.15351672 0.075807415 0.21070719 0.11855458
000070 23 37 96 bd 72 b8 70 be 31 06 51 3d 52 12 fa 3c
       -0.07334735 -0.2350786 0.051031295 0.030526314

diffop.mp1.boundary_self_W.weight f4 [32, 1]
000000 70 ad 5e 3e ac 35 33 3f 56 25 64 3f 8e ac 6c 3f
       0.21745849 0.7000377 0.8911947 0.924508
000010 18 b6 75 3e 74 eb 1a bf 94 88 fe 3e 60 ca aa 3e
       0.23995245 -0.6051552 0.49713576 0.33357525
000020 94 be b5 3e a0 4d 09 3d 38 58 e6 3e 40 19 29 3d
       0.35496962 0.033521295 0.4498918 0.041283846
000030 c6 06 02 bf a8 d9 47 be 8a dd 1c 3f 64 49 a9 be
       -0.50791585 -0.19516623 0.6127554 -0.33063805
000040 d0 c8 0d bf 34 41 59 3f 40 e0 35 3d 22 ef 78 3f
       -0.5538454 0.8486512 0.044403315 0.9723989
000050 c6 0c 74 bf 74 c9 78 bf 60 26 15 3e 94 61 e5 be
       -0.9533199 -0.97182393 0.1456542 -0.4480101
000060 8c ec 2e bf b8 1b e8 3e a0 24 1a 3f 00 bf f0 bd
       -0.6832969 0.45333648 0.60212135 -0.1175518
000070 18 50 28 3e f6 67 78 3f ce bd 3a bf 80 ac 3b 3f
       0.16436803 0.9703363 -0.7294587 0.7331009

diffop.mp1.boundary_self_W.bias f4 [32]
000000 06 86 f1 bd 9f 21 40 3e 9d c2 f8 bc 6d f0 f0 3e
       -0.11793141 0.18762825 -0.030366236 0.4705843
000010 fe ea 43 3e 8d fe 64 3f 3a 3b 38 3f 40 c8 bc 3e
       0.19132611 0.89450914 0.7196537 0.3687153
000020 92 39 60 be a2 47 5e bf 87 1c b0 be de 51 af 3e
       -0.21896961 -0.86828053 -0.34396765 0.34242147
000030 fd d3 d7 3e f0 f1 02 bf ab 16 36 3e 8a 43 4d 3f
       0.42153922 -0.5115042 0.17782085 0.8018118
000040 7e 90 3d 3f 25 d4 a0 be b1 9e a9 be b6 fb 4c 3f
       0.740486 -0.31411853 -0.33128884 0.8007158
000050 f3 f6 2c bf 6e 1a 6b 3d ab 5c 19 bf 84 29 48 3f
       -0.67564315 0.057398252 -0.59907025 0.7818835
000060 f6 a0 b2 be 1e 8d 8c 3c 30 2a 52 3e 3a c7 ff bd
       -0.34888428 0.017157134 0.20523906 -0.12489171
000070 c1 31 56 3f f8 b7 a2 bd 6d 5b b6 be cc 24 1b bf
       0.8366967 -0.079452455 -0.35616627 -0.6060302

diffop.mp1.control_msg_W.weight f4 [32, 16]
000000 f8 06 38 3e 1f 43 13 3e bd 63 26 3d 18 2b 9d 3d
       0.17971408 0.14381073 0.04062246 0.07674235
000010 fd be 24 3d d7 83 0f be e7 22 2b bd f0 14 80 3e
       0.040221203 -0.14015137 -0.041781332 0.25015974
000020 0a e7 e5 3d ce e4 2e 3c e3 bf a7 bd 0c 43 24 be
       0.11225708 0.0106746685 -0.08190896 -0.16041201
000030 96 d6 d5 bd 56 b5 53 3e d1 45 41 3e c2 28 83 be
       -0.1044132 0.20674643 0.18874289 -0.25617033
000040 8e 65 25 3e b8 4a 4b bd 99 2f f6 bd 11 86 36 3e
       0.16152021 -0.049631804 -0.12020797 0.1782458
000050 62 c3 91 3e dd fe 35 3e 42 a2 d0 3d 01 b8 f1 3d
       0.28469378 0.17773004 0.10187198 0.11802674
000060 a8 dc 15 be 5e e3 16 be bc 50 0e 3d 2a 30 3b 3e
       -0.14634955 -0.14735171 0.034744963 0.18280092
000070 3b 59 28 3e 11 15 7d 3e d1 2e ad bc e3 a0 ba 3d
       0.16440289 0.24715067 -0.021140488 0.09112718
000080 2d ef c4 bd 8d 88 57 3e 96 f3 83 bd 64 a7 88 3d
       -0.09615932 0.21048184 -0.06442945 0.06672552
000090 c8 7c 74 3e 7e 46 36 3d a9 75 4c be 99 4a 8f 3e
       0.23875725 0.04450082 -0.19966759 0.279866
0000a0 77 06 1d 3d 2f d2 dd bd 98 e4 9f 3e 1a 35 35 3e
       0.038336243 -0.10831105 0.3122909 0.17696038
0000b0 66 0f 3c be 34 c4 e0 bd b8 ce 3d be fd d5 0a 3e
       -0.18365249 -0.10974923 -0.18535888 0.13558193
0000c0 a0 eb db bd ba a8 14 bd ab 2a 12 3e 96 9c e2 bd
       -0.10738301 -0.036293723 0.14274089 -0.11065023
0000d0 99 57 1f 3e 03 98 ba 3d d6 12 d6 bb c3 46 b0 3a
       0.1556076 0.09111025 -0.006533007 0.0013448823
0000e0 29 d3 20 be 8f 00 79 3c ad 4e 39 3e fc 31 3b be
       -0.15705551 0.015197887 0.18096419 -0.18280786
0000f0 9c 9f 0e 3e 3e 0b 57 bd f5 79 8e bd 3e 94 8c 3d
       0.13928074 -0.052500956 -0.06956855 0.068642125
000100 d5 ce 1f 3e 3f f4 96 be 3f a4 44 3e fa 7d 4e 3e
       0.15606244 -0.2948322 0.1920328 0.20165244
000110 61 bb 05 be 04 8c 85 be 08 a9 8a 3d d3 c0 03 3e
       -0.1305976 -0.26083386 0.067705214 0.12866525
000120 60 ea 3d be 86 a7 ad 3d e7 f4 2b 3e 3b a5 15 3e
       -0.18546438 0.08479218 0.16792642 0.14613812
000130 04 6a 34 3e b8 8b 5f be 26 fc 94 bd 2e 7c 68 3e
       0.17618567 -0.21830642 -0.07274656 0.22703621
000140 e4 58 4c be fa 83 87 bc d6 f4 85 be 4e 60 22 3e
       -0.19955784 -0.016542424 -0.26163357 0.1585705
000150 b5 99 e7 3d 04 38 93 bd cf fe ea bd d7 ad 0d 3e
       0.11308614 -0.071884185 -0.11474382 0.13835846
000160 6f 28 db bd 66 0c 0b 3d 1d a6 c1 3d 9d 43 32 3e
       -0.107010715 0.03394737 0.09455512 0.17408605
000170 19 e5 66 3e 83 9d 46 3e 5d b3 c5 bd 29 a1 b0 3d
       0.22548331 0.19396023 -0.096533515 0.08624489
000180 22 5d 31 3e 80 89 4a 3e 7e ca 96 be 17 7c 92 3e
       0.17320684 0.19779015 -0.29451364 0.28610298
000190 7e 33 fd ba 44 d0 47 bd 96 79 d5 bd fd 78 25 3e
       -0.0019317714 -0.048782602 -0.10423581 0.16159435
0001a0 ca 75 28 3e f4 e3 fb 3d f0 f8 c7 bd 60 ed bf bd
       0.16451183 0.12299338 -0.09764278 -0.093714476
0001b0 70 2c 45 be c5 1c 25 3e 11 80 32 be de f2 63 3d
       -0.19255233 0.16124256 -0.17431666 0.055651538
0001c0 0e bb 22 3e 04 75 16 be c2 23 55 be 81 b0 12 3d
       0.15891668 -0.14693075 -0.20814422 0.03581286
0001d0 b9 dc c1 bd 08 28 48 be 5e 64 93 3e c3 07 91 3e
       -0.09465928 -0.1954652 0.28787512 0.28326234
0001e0 32 f6 04 3e 43 7a 09 3e 53 fa 9c 3d 3c ec 91 be
       0.12984541 0.13425545 0.07664933 -0.28500545
0001f0 dd 86 6d bc 76 45 3c be a8 9d 88 bd 6c e3 98 be
       -0.014497486 -0.18385872 -0.066706955 -0.2986101
000200 af cc 63 be 65 68 0f be 30 8a e6 3d 0b ac 8e bd
       -0.2224605 -0.14004667 0.11256826 -0.06966408
000210 fa 9f f1 bb a3 08 2e 3e 06 90 9a bd 9f 5b 2f bd
       -0.007373807 0.16995482 -0.075470015 -0.042811986
000220 64 11 99 bd 5a 24 20 3e 7d 01 83 3e f1 cc 80 be
       -0.0747402 0.15638867 0.25587073 -0.25156358
000230 45 50 b0 3d ef 23 c3 bd 72 88 69 3e 1c b3 2d 3e
       0.0860906 -0.09528338 0.22805956 0.16962856
000240 d2 b3 db 3d 9e 02 a5 bd 37 b6 ee 3d 44 0c 40 bd
       0.107276574 -0.0805714 0.116558485 -0.046886697
000250 66 d7 a7 3c 48 dd e8 3d be 22 33 be 02 0f 34 3e
       0.020488452 0.11370331 -0.17493722 0.1758385
000260 97 6d 90 3e 30 fa 5f bd 4d b8 85 3c ba 57 25 be
       0.2820861 -0.054681957 0.016323233 -0.16146746
000270 3d 9e c3 bd 60 55 9d be 3d c2 d6 3d 33 99 bf bd
       -0.09551666 -0.30729198 0.10486267 -0.09355392
000280 41 1e c7 3d 20 dd 1b be 57 49 57 be fb 00 d3 3d
       0.09722567 -0.15221071 -0.2102407 0.103029214
000290 ee b6 f3 bd 87 ad 40 be 8c f3 9a 3c 08 9b 70 3e
       -0.119001254 -0.18816195 0.01891496 0.2349664
0002a0 e4 ac 86 bd 80 d1 3d 3e e6 9f 40 bd a2 07 85 be
       -0.06575945 0.18536949 -0.04702749 -0.25982386
0002b0 9d a5 0b be e3 5a 49 bd 25 ff 7f 3e 8b e4 06 3e
       -0.13637395 -0.049158942 0.24999674 0.1317312
0002c0 17 d7 5c bd 03 70 52 3e ef 73 c1 bc 7f 83 e6 bd
       -0.053916063 0.20550542 -0.023614852 -0.1125555
0002d0 13 ce c8 bd 51 5b 84 3e c7 cf 57 bc 9c 1c 30 bd
       -0.098049305 0.2585092 -0.013172097 -0.042996034
0002e0 99 75 67 be 2b 8b 29 be a1 61 72 bd a9 e5 9c 3d
       -0.22603454 -0.16556995 -0.059175137 0.07660992
0002f0 7a 8f 5c be 5f da 60 3e dd bf be 3d da c5 25 be
       -0.21539107 0.21958302 0.09313939 -0.16188756
000300 11 59 7a 3e 00 b6 f3 3d b2 2a 85 3e a7 02 44 3e
       0.24448039 0.11899948 0.26009136 0.19141637
000310 48 72 65 be b8 4f 20 be 11 8a 70 be 94 12 51 be
       -0.22406876 -0.1565541 -0.23490168 -0.20417243
000320 a5 b5 7a bd f7 72 3f 3e 2a 35 47 bd 48 8d 42 3e
       -0.061208386 0.186962 -0.048634686 0.18999207
000330 d6 e6 eb 3d c2 d5 f5 3d 30 43 04 bc f3 17 d1 3d
       0.11518638 0.12003662 -0.008072659 0.10209646
000340 fa 1e 93 be ce c5 a9 3d 95 8d f1 3d f3 14 52 3e
       -0.2873457 0.082896814 0.11794583 0.20515804
000350 cd 57 9c 3d c7 4c 6a bd cc 8b 9e be 0c 38 96 3e
       0.07633934 -0.057202127 -0.30966032 0.29339635
000360 7a a6 4a be cc 3e 64 3e f0 c2 62 be cc 9b 07 3e
       -0.19790068 0.2228958 -0.22144675 0.13243026
000370 1a 26 5f 3d dc 63 bc bd cd c7 78 bd 70 4e c0 bd
       0.054479696 -0.09198734 -0.06073742 -0.09389961
000380 d8 40 68 be 91 44 2f be c5 d6 5c 3e 6a 26 4e be
       -0.22680986 -0.17116 0.21566303 -0.20131841
000390 39 eb 2a 3d bd 17 18 3e 87 f3 04 3e 54 58 66 3e
       0.041728232 0.14852805 0.12983523 0.22494632
0003a0 50 95 5d be c2 7e 06 be b9 37 d9 3a 8c cb 3d 3d
       -0.2163899 -0.13134292 0.0016572393 0.046336696
0003b0 39 90 87 3e 42 8e f0 3d 86 c4 c5 bd 0d f7 6e bd
       0.2647722 0.117458835 -0.096566245 -0.058341075
0003c0 04 50 dd bd 2a eb 41 bd 21 ce 81 be 59 8b 44 3e
       -0.108062774 -0.04734341 -0.25352576 0.19193782
0003d0 3c 88 b5 bd a1 6d 3d 3e 0d b9 93 3d b2 3c 5b be
       -0.08863875 0.18498851 0.0721303 -0.21409872
0003e0 e8 be 5c be 4e 7a 46 be 12 79 60 3e dc 8b d3 bd
       -0.215572 -0.19382593 0.21921185 -0.103294104
0003f0 5e fd 63 be f4 fd c4 bb 35 78 50 be 8b f3 8a bd
       -0.2226462 -0.006011719 -0.20358355 -0.067847334

diffop.mp1.control_msg_W.bias f4 [32]
000000 a9 02 59 bc f9 ec 24 3e 84 10 a1 3c a8 6b dc 3d
       -0.013245263 0.16106023 0.019661196 0.10762721
000010 53 46 92 bd 41 95 64 3d 7b b7 8f 3d 87 a1 de bd
       -0.071423195 0.055806402 0.07017418 -0.10870653
000020 fc c8 88 3e b5 98 5e be 55 24 69 3d 8f ca e9 3e
       0.2671584 -0.2173794 0.056919415 0.45662352
000030 2b 71 65 3c 4b 35 0b 3f 12 0d b4 3d 04 6a 62 be
       0.014004032 0.54378194 0.087915555 -0.22110754
000040 bc 42 34 3e 36 61 35 3e 74 9d d4 3d d5 9e eb bd
       0.17603582 0.17712864 0.10381594 -0.11504904
000050 ae 14 a5 3e 4c 45 7e 3d 2a af 65 be 12 f6 2f be
       0.3224234 0.062077805 -0.22430101 -0.17183712
000060 3a ae 4d bd 38 8b 39 3e 10 a3 4a be 6f 8b ef bd
       -0.050214984 0.18119514 -0.19788766 -0.11696517
000070 45 17 7f be 2a 4b 87 3e ec 5e 30 3e ca e1 e4 bd
       -0.2491122 0.26424533 0.1722371 -0.11175878

diffop.mp1.control_self_W.weight f4 [32, 1]
000000 3f 41 1a 3e cf 3b 53 bf ca 11 3e bf c5 75 51 3f
       0.15063952 -0.82513136 -0.74245894 0.8182033
000010 98 99 1e bf 83 45 36 3f f8 71 79 3f 37 95 7d be
       -0.61953115 0.71199816 0.9743953 -0.24763952
000020 64 69 c3 3d 6c 62 6a bf 37 77 a3 ba 6e 8c 00 bf
       0.09541586 -0.9155643 -0.0012471442 -0.5021428
000030 86 58 ac 3e bb a4 c3 be cc ac 4b bd e9 c1 3f be
       0.33661288 -0.38211617 -0.04972534 -0.18726315
000040 00 3e 63 3f ae 4b 6d bf 67 3c ac be db e3 65 3f
       0.8876648 -0.92693603 -0.33639833 0.89800805
000050 96 fc 17 3f 1e 60 62 3f d8 ae 99 3e 39 70 4e 3f
       0.5936979 0.88427913 0.30016208 0.8063999
000060 09 d4 08 3f 0d d5 a8 bc e5 d9 86 3f c7 86 68 3f
       0.5344854 -0.020609403 1.0535246 0.90830654
000070 eb 42 e2 be 00 ac 96 be d3 75 d4 be 26 76 c9 be
       -0.4419168 -0.294281 -0.41496143 -0.39347953

diffop.mp1.control_self_W.bias f4 [32]
000000 43 d5 62 3f 52 72 7b 3f 7a 86 00 3e a8 1c 7b 3f
       0.8860666 0.98221314 0.12551299 0.980906
000010 72 fc b8 be 76 58 58 3f 48 6c a4 3c 5f dd 82 3f
       -0.361301 0.8450998 0.020071164 1.0223807
000020 05 6a 29 be 51 65 81 bd 4d ce e8 be 98 51 49 3f
       -0.1654435 -0.06318153 -0.45469895 0.7864013
000030 8f 9a a0 bd 9b 27 57 3e f7 81 10 bd 05 e5 d7 bd
       -0.0784198 0.21011202 -0.035280194 -0.10541729
000040 e9 ee df be e0 66 82 3e 4d 4c 4c be cd cb 1e be
       -0.4373696 0.25469112 -0.19950981 -0.15507431
000050 1c 50 35 bf 4b 8c b4 be 0f 09 32 3f da b6 a7 bc
       -0.7082536 -0.35263285 0.6954507 -0.020472933
000060 7f 06 b9 be d9 e6 7e 3a ba aa 58 bf ac 05 78 be
       -0.3613777 0.000972373 -0.8463551 -0.24220914
000070 0a e5 bf 3e 01 ec 6a 3f 77 f0 15 3f bf 70 26 be
       0.3747943 0.91766363 0.58570045 -0.16253947

diffop.mp2.message_int_int.weight f4 [16, 64]
000000 dd 20 14 ba f0 4b 0d 3e e3 6d c3 3d ce c9 dd bc
       -0.0005650649 0.13798499 0.095424436 -0.027073767
000010 ee 93 03 be f2 d6 ad bc 67 97 91 bc 3c 38 e3 3b
       -0.128494 -0.021220658 -0.01777239 0.006934194
000020 55 c5 f9 bd 15 0c 63 3d 6f c4 98 3d 27 16 94 3d
       -0.12195841 0.055431444 0.07459342 0.07230788
000030 0a 6c 8c bc 46 f2 2e bc 29 b6 98 3d d8 07 bf bc
       -0.01714136 -0.01067788 0.07456619 -0.02331917
000040 06 0e 0b bd 36 be 2f 3e a3 76 04 3e a9 9f 0e 3c
       -0.03394892 0.17162403 0.12935881 0.008705058
000050 e6 c6 b3 bb 39 d8 26 bd 29 1f 86 bd e7 ce 32 bd
       -0.005486357 -0.04073355 -0.06548912 -0.04365435
000060 8c cc 77 3e 42 73 37 3e d7 9b 14 3e 53 f2 d8 3d
       0.24199122 0.17915061 0.14512573 0.10593095
000070 5d 19 39 3c e8 fa 81 bd ba f5 56 3d a9 4b 29 be
       0.011297551 -0.06346685 0.052480437 -0.16532768
000080 de c6 42 3d 03 40 12 bd f2 f0 b1 3d ed 82 d4 bc
       0.047552936 -0.035705578 0.08688535 -0.025941337
000090 07 4f 49 3c c0 1c a3 3d e1 c0 57 bc 35 b7 26 bc
       0.012286908 0.07964468 -0.0131685445 -0.010175516
0000a0 26 a6 5e 3d 19 d4 cf 3b 38 c1 12 be ad 3e 28 bd
       0.05435767 0.0063424227 -0.1433152 -0.041075397
0000b0 e9 78 bf 3c 15 54 03 3e 4d fb 5e 3d 19 7a 93 3d
       0.023373084 0.12825043 0.054438878 0.07201023
0000c0 2b e2 ea bc d3 f0 92 3d c6 24 6d 3d 6e a1 25 bd
       -0.028672298 0.0717484 0.057896398 -0.040437154
0000d0 5f 65 f9 3d c3 2a 92 3c 1e 72 93 bc 45 d0 07 be
       0.12177538 0.017842656 -0.017998751 -0.13263042
0000e0 9f 12 44 3d 9a a8 6b bc 60 72 22 be d7 83 c3 bc
       0.04786932 -0.014383459 -0.15863943 -0.023866577
0000f0 99 5c 51 bd 6b 05 53 3d 2a 27 e5 bd e5 62 90 3c
       -0.0511137 0.05151884 -0.111891106 0.017625282
000100 a6 7e 4b 3e f7 29 eb 3c fe 9f 94 bd 5f 9e d1 bc
       0.19872531 0.028706534 -0.072570786 -0.025588213
000110 0d 19 9b 3d 9c 2a b4 ba cd 74 f4 bd 37 55 91 bd
       0.075731374 -0.0013745609 -0.119363405 -0.070963316
000120 57 6f 74 bc b1 8b b7 3d ab 42 4f bd c3 7a b0 bd
       -0.014919124 0.08962191 -0.05060069 -0.08617165
000130 e5 ec 16 3e f6 04 af bd ec 0d e5 bd d1 6c 6f 3c
       0.14738806 -0.08545868 -0.11184296 0.014613346
000140 23 f6 f5 3d 69 84 98 3d d0 9a a6 3c a2 65 2c 3d
       0.120098375 0.0744713 0.020337492 0.042089112
000150 be 4d 40 bd c9 0c 81 3b ee 19 a1 bc 64 55 ce 3d
       -0.04694914 0.0039382917 -0.019665685 0.10074881
000160 8e 8b f7 bd 55 41 21 be 53 ef 8e be 2e 68 80 be
       -0.12087165 -0.15747578 -0.27916965 -0.25079483
000170 dd 90 6d bd 69 7e 04 be 00 84 73 bc 4c 91 58 bd
       -0.05799948 -0.12938847 -0.014863014 -0.05287294
000180 df 17 53 bc c9 77 0b 3e e4 3d fd bd a1 cb fd bc
       -0.012884109 0.13619913 -0.1236532 -0.030980887
000190 e8 6b 28 be 93 20 06 bd 0a cf 6d bd 4b 03 b4 bc
       -0.16447413 -0.03274591 -0.058058776 -0.021974226
0001a0 07 a5 bf 3d cf fe 4c bd 1e 7f d0 bb 60 02 94 3d
       0.09357648 -0.050047692 -0.00636281 0.072270155
0001b0 a9 e4 19 be dc 87 66 bc bc af de 3d 7b f2 0f be
       -0.15028633 -0.014070477 0.108733624 -0.14057343
0001c0 18 9d c5 3d 1d 8b 50 3d 3d ed 5f bd b3 c4 2b 3e
       0.09649104 0.05091392 -0.054669607 0.16774254
0001d0 9b da 1e be 61 3c b0 3d fa af 48 bb 52 08 d7 3d
       -0.15513079 0.08605266 -0.0030622468 0.10499634
0001e0 5c 78 e5 3d be a4 72 3d 1b 9a c9 3d ef 20 d0 3d
       0.11204597 0.05923914 0.098438464 0.101625316
0001f0 8a bd f2 3d 97 37 e5 bb d5 ae 9d 3d e2 73 2a 3d
       0.11852558 -0.006995152 0.07699362 0.04161442
000200 60 03 fa 3d fc 08 7b 3d 24 6c 02 3d b3 39 ef 3d
       0.12207675 0.061287865 0.031841412 0.11680927
000210 df dc ce 3b 75 07 78 bd 51 a2 46 be b9 bd 31 be
       0.006312951 -0.060553987 -0.19397856 -0.1735753
000220 f7 21 a7 3c 67 b3 74 bc 43 21 37 3c bf b8 17 be
       0.020401938 -0.014935351 0.011177364 -0.14816569
000230 9f 54 b4 3d d0 5f bd bd b7 9a 67 bd 71 ab 43 bc
       0.08805203 -0.092467904 -0.056544032 -0.01194273
000240 5b 62 8f bd b4 a6 04 3d 6c b5 4e bc 7b 7f 9f 3c
       -0.07001182 0.032385543 -0.0126164965 0.019469967
000250 a6 63 c1 3d b1 6a f2 bd 94 26 88 3c 71 4b 35 3b
       0.094428346 -0.11836756 0.016619958 0.0027663375
000260 f2 fa 3c bd fa 19 0d 3d d9 54 4f bd 71 bb 71 be
       -0.046137758 0.0344486 -0.050618026 -0.2360666
000270 d8 e3 9f bd f7 e8 86 bb 92 bf 47 3d 61 b0 0f bc
       -0.078071296 -0.004117127 0.04876668 -0.008770079
000280 ab 78 ac 3b 06 ba 12 3d 65 23 fc 3c c7 2d 80 bd
       0.005263408 0.035821937 0.030778596 -0.06258731
000290 d1 98 17 be d2 69 f7 bc df f2 0c bd 33 00 c9 3b
       -0.14804389 -0.030201826 -0.034411307 0.006134057
0002a0 73 f4 4d bd 0f 7f 1d 3e eb a0 bc 3d ed 81 3d bd
       -0.050281953 0.153805 0.0921038 -0.046266485
0002b0 98 20 ab bd 3d e9 da 3c 17 f9 a6 3d 57 9a 88 bd
       -0.08355826 0.026722545 0.08152979 -0.06670063
0002c0 cc a4 9b 3d 91 92 06 be 16 3b e9 bd 27 9e 3b bd
       0.07599792 -0.13141848 -0.11388223 -0.045805123
0002d0 3e 2f 2d be c3 fb 00 bc b3 36 4c 3d df 18 06 bd
       -0.16912553 -0.007872525 0.049856853 -0.032738563
0002e0 38 b9 08 3e 5c 74 8d 3d 42 5e ce 3c 13 88 05 bd
       0.13351905 0.069069594 0.02519143 -0.032600474
0002f0 6b cd 0a 3e 67 40 a6 3d a2 84 d0 3d da df f7 bd
       0.13554923 0.081177525 0.10181548 -0.12103243
000300 35 15 17 be e9 d8 ba 3b d7 6e 13 3d 81 e8 80 39
       -0.14754184 0.0057021272 0.035994377 0.0002458729
000310 37 7c 83 bd 60 eb 19 3e 64 47 18 3e 31 4d 1e 3e
       -0.064201765 0.15031195 0.14870983 0.15459134
000320 15 d8 a1 bc 26 02 6c 3d 6f 2b 94 bc 41 fc 2a 3e
       -0.019756356 0.057619236 -0.018087117 0.1669779
000330 71 19 13 be 3a 5f 82 3d 96 8e 28 3e 08 e6 09 be
       -0.14365174 0.06365819 0.16460642 -0.13466656
000340 b3 51 26 bd c1 1c f3 3c 6f 61 a0 3b 58 9e 73 3c
       -0.04060526 0.029676797 0.0048944275 0.014869295
000350 5d e7 b1 bd fd f8 6e ba 19 f1 3d bd aa af 19 3d
       -0.08686707 -0.00091160816 -0.046372507 0.037521042
000360 b6 69 3d 3e 35 b7 fe 3c c0 ae e9 3d e4 ba cb 3d
       0.18497357 0.03109322 0.11410284 0.09947756
000370 ec ba e8 3d 45 c2 e9 3d b9 a1 71 3d b0 df 80 3d
       0.113637775 0.11414007 0.05899212 0.06292665
000380 7a f9 28 3e be 0a 05 be 7a b8 f4 3b 81 9f c5 3a
       0.16501418 -0.12992379 0.0074682804 0.0015077443
000390 db 76 41 bd 7e d8 67 3d 5c 21 bb bd ec 45 10 be
       -0.04723249 0.056602947 -0.09137222 -0.14089173
0003a0 8b ec 29 3b e5 61 40 bd 80 2d 80 3d ab 98 1d 3e
       0.0025928344 -0.04696836 0.062586784 0.1539027
0003b0 26 5a b2 3c 04 4a 66 bd 99 d5 76 3d fd 4d e3 3d
       0.021771502 -0.05622293 0.060262296 0.110988595
0003c0 41 29 73 bc 07 34 3a 3e 88 c4 5f bd 64 47 98 3d
       -0.014841379 0.1818391 -0.054630786 0.07435492
0003d0 df 10 1c bd e2 e2 12 be f4 1b 01 be f5 5e 46 3d
       -0.038102027 -0.14344361 -0.1260832 0.0484304
0003e0 07 37 84 3d 2c bb 38 bd 25 de 07 3d f5 7b 2b 3d
       0.06455808 -0.045100376 0.033170838 0.04186626
0003f0 20 0c cc bd 64 97 34 3c 8c 70 c2 3d b1 0c ad 3d
       -0.0996325 0.011022422 0.09494123 0.08449686

diffop.mp2.message_int_int.bias f4 [16]
000000 d0 b7 ff bc cb c9 59 3c 03 d7 10 be 0b 47 7c 3c
       -0.031215578 0.01329274 -0.1414452 0.015397797
000010 f1 29 cc 3d 86 df eb 3d 26 63 56 3d c7 e4 30 3c
       0.09968937 0.11517243 0.05234065 0.010796732
000020 4d aa 09 3e f8 f5 50 3e 53 18 07 3e b0 17 e1 bd
       0.13443871 0.2040633 0.13192873 -0.10990846
000030 33 87 48 be 23 ab 1e 3e 9b f0 01 be f6 4f c2 3c
       -0.19582824 0.15494971 -0.1268944 0.023719769

diffop.mp2.message_bound_int.weight f4 [16, 64]
000000 99 3b 54 3d 61 11 09 3d b7 ed de 3c 6e 6d c3 3a
       0.05181465 0.03346384 0.02721296 0.0014909932
000010 fc 22 01 3e b0 90 30 3d b1 5b 00 bc 54 ca a5 3d
       0.12611002 0.043106735 -0.007834361 0.08095232
000020 30 e9 1c bb 3f cc 5a 3b 75 82 78 bd 0f a6 b1 3d
       -0.0023942702 0.00333859 -0.06067129 0.08674251
000030 82 a3 09 3e 63 cb b9 bd 48 cc a7 3d eb da 0f 3e
       0.1344128 -0.09071996 0.081932604 0.14048354
000040 b4 36 43 bc 6d 33 80 3c a9 b1 8e bd 16 3d 0b 3e
       -0.011914898 0.015649522 -0.0696748 0.13597521
000050 17 93 b7 bd bd 2a 8c 3d a1 51 2f bd be a7 96 3d
       -0.08963602 0.06844089 -0.042802457 0.07356213
000060 aa 7e 7e 3d ac db cd 3d 46 b2 c5 bd 18 03 60 3d
       0.062132515 0.10051665 -0.096531436 0.05469045
000070 1d 86 69 3c e2 a3 55 bd e7 a1 ae bd 05 06 bb bc
       0.0142531665 -0.052158244 -0.08526974 -0.022830019
000080 d7 ee 16 3e c4 ea 00 be f0 16 c4 bc 7d e0 24 3d
       0.14739548 -0.12589556 -0.023936719 0.04025315
000090 98 6a 2f 3e 35 1f a5 3d 84 e7 a6 bd 5e 11 1b be
       0.17130506 0.08062593 -0.08149627 -0.15143344
0000a0 c6 2c 11 bb 66 07 b7 bc 4f 1f a8 bd a5 d4 b1 3c
       -0.0022151931 -0.022342395 -0.08209097 0.021707842
0000b0 68 cd 2a bd 21 51 0d bc a1 67 70 bd aa bb 6b bb
       -0.041699797 -0.0086253 -0.05869258 -0.003597001
0000c0 1c b6 87 ba 6c bb 9a 3d 85 46 99 3d 1c f7 db bd
       -0.0010353955 0.07555279 0.07484154 -0.10740492
0000d0 42 c5 3e bd fd 3f db bd cc 9c 1e bc a2 0d 9a bd
       -0.04657484 -0.10705564 -0.009680938 -0.075221315
0000e0 6c be 13 be 8e 5d f6 bd 42 8a 55 be bb 01 05 3d
       -0.14428109 -0.12029563 -0.20853522 0.032472353
0000f0 20 82 8b bc bf bd 68 bd 32 af 0c be ba cb 98 3d
       -0.017029822 -0.05682158 -0.13738707 0.07460733
000100 d2 3e 27 3e 27 13 99 bd 8b c7 8a 3d a9 ff b0 3d
       0.16332558 -0.07474356 0.06776341 0.08642513
000110 6d 34 1e bd 08 5b b5 3c b5 11 0a be 17 6b f2 bc
       -0.038624216 0.022138134 -0.13483317 -0.02959208
000120 77 35 03 3e b0 a2 e6 3c f4 c0 ec 3d 89 72 36 be
       0.12813364 0.028153747 0.115602404 -0.17817129
000130 15 4e db bd 3d ae 83 3c 93 12 e1 bd 25 3e 04 3d
       -0.10708252 0.016074294 -0.10989871 0.03228583
000140 a6 ea a2 bd 30 91 e5 bc 23 4e 1b 3e 74 3f cb bd
       -0.07954912 -0.028023332 0.15166526 -0.09924212
000150 2b 57 26 3e dd e3 2f be 3b 97 99 bc a6 ba f1 bc
       0.1624419 -0.17176767 -0.01874887 -0.029507946
000160 ff 4f 06 bd fa bb 69 3c 00 69 5e 3e 70 f7 9f 3c
       -0.032791134 0.0142660085 0.21719742 0.019527167
000170 98 1e d5 3a 11 0e 04 bd ba 6e 17 3e fc 31 a0 3d
       0.0016259728 -0.032239977 0.14788333 0.07822034
000180 cc a3 e6 bd 2b 32 6a 3d ee 58 92 3d 96 31 78 bd
       -0.112617105 0.05717675 0.07145868 -0.060594164
000190 95 1a d1 bd 9e 8c 5e 3d 4b 53 8d 3d 32 a5 18 3e
       -0.10210148 0.05433332 0.069006525 0.14906767
0001a0 f3 b4 26 be 6a 74 84 3d e0 e8 04 3e 43 bf 0e 3e
       -0.16279964 0.06467517 0.1297946 0.13940148
0001b0 3e c0 9d 3c 4b fa 7e bd 18 b5 b5 bc ea ea 9a bd
       0.019256707 -0.062250417 -0.022181079 -0.075643376
0001c0 61 07 09 3e 2a 96 e6 3d 2a 70 5e 3d 78 30 20 bd
       0.13381721 0.1125911 0.054306187 -0.039108723
0001d0 25 eb 09 be e6 94 17 3e 72 57 9c bc f6 60 f2 3c
       -0.13468607 0.14802894 -0.019084666 0.02958725
0001e0 c2 4f b4 3d 4d 19 87 bc 4b e4 92 3d ba 08 ba bc
       0.08804275 -0.016491557 0.0717245 -0.02270924
0001f0 c2 7b b4 3c cc ca 16 be 77 89 73 bd 17 0c 88 bd
       0.022031669 -0.14725798 -0.05945727 -0.06642931
000200 99 2a ae 3d 43 3f 7a bb 41 9d ef 3d 72 0b f2 bd
       0.085042186 -0.003818468 0.11699916 -0.11818589
000210 c0 45 76 bd a6 e7 28 be f6 e9 c4 bd 05 3c ae bd
       -0.060125113 -0.16494617 -0.09614937 -0.085075416
000220 d4 e9 94 3d 50 d1 28 bc 19 d4 6d 3d e9 25 81 3d
       0.07271162 -0.01030381 0.0580636 0.06306059
000230 dd 79 9f bd 87 39 a3 3d 5a 8e 10 3c e6 eb f1 bc
       -0.077869155 0.07969957 0.008823002 -0.02953143
000240 6a 61 61 bd d9 8c e8 3d ec da 56 3d e2 e8 d5 bd
       -0.055024542 0.113549896 0.052454874 -0.104448095
000250 28 72 bd 3c 17 0f a5 bd 9b 3b 80 3d 78 f4 f7 bc
       0.023125723 -0.08059519 0.06261369 -0.030267939
000260 12 03 8c 3d 65 ee 22 be 07 d5 f4 3d 10 e2 b0 3b
       0.06836523 -0.15911253 0.11954694 0.0053980425
000270 37 5d 7a 3d 16 13 8f bd 91 92 3f bd 28 9f 34 bd
       0.061124053 -0.06986062 -0.046770636 -0.044097096
000280 6e 31 24 be 28 bf d9 3d 71 2c ca bd e2 18 ce 3d
       -0.16034481 0.10632163 -0.09871758 0.1006334
000290 48 3c 91 bc 91 de 1a be 63 b5 e5 bd d7 a6 69 3b
       -0.01772894 -0.15123965 -0.112162374 0.0035652423
0002a0 17 ad 92 bc ca 2c 50 bc 1a 95 1f 3e e9 21 fd 3d
       -0.017904801 -0.012705991 0.15584221 0.123599835
0002b0 c6 30 17 3b 7a ce bf 3c ac 2c 35 3e 56 d9 b5 3d
       0.0023069843 0.023413885 0.17692822 0.08879344
0002c0 72 33 9c 3d cb 4a 10 bd d7 c5 64 bd 2e d6 eb 3d
       0.07627 -0.035227578 -0.055852737 0.11515461
0002d0 0d 98 33 be cc 08 e2 3d e8 30 2c 3e 0f a6 62 3d
       -0.17538472 0.11036834 0.16815531 0.055334147
0002e0 48 bb aa bd da 5f 3b 3e 03 69 81 bc d0 0a ba bc
       -0.08336502 0.18298283 -0.015797144 -0.022710234
0002f0 bd f9 1a 3e 2b 94 3e 3d db b9 a0 3c 30 42 d3 bc
       0.1513433 0.046528023 0.019619873 -0.025788397
000300 ca 3b 66 bd 62 cb 92 bc 4f 1a 77 bd ac 37 10 3e
       -0.056209363 -0.017919246 -0.060327824 0.14083737
000310 03 51 79 bc 7b 84 1e 3e cc 98 82 bd 81 59 2f 3d
       -0.015217069 0.15480225 -0.063768 0.042809967
000320 0c aa 86 bd 45 60 29 be e0 31 3f bd 30 80 97 3b
       -0.065754026 -0.1654063 -0.046678424 0.0046234354
000330 7c 93 25 3d c1 5e a6 bc 59 a3 ea 3d b1 de bb 3d
       0.040423855 -0.020308854 0.11456937 0.091733344
000340 2d 5a 24 3e b3 65 3b 3c c2 1f 86 bd e4 c2 06 3e
       0.16050024 0.011437821 -0.06549026 0.13160282
000350 12 72 ce bc e3 ed 74 bd 02 b6 ad bd 3b db 11 3e
       -0.025200877 -0.05979718 -0.08481981 0.14243786
000360 99 cd 30 be 4d 31 50 bd 69 07 0e 3c 3d 89 cc 3d
       -0.1726593 -0.050828267 0.008668759 0.099871136
000370 74 3f 9a 3d ab 58 bb bd d2 93 14 bc a9 c3 90 3d
       0.07531634 -0.091477714 -0.009068446 0.07068569
000380 f5 da e0 bc 44 5e 21 be 45 9c cc 3d fc 4b 9d 3d
       -0.027448157 -0.15758616 0.099907435 0.076805085
000390 df 4d 06 3e c8 b1 2e 3d 30 41 da 3b 6f 03 3e bd
       0.13115643 0.042650014 0.006660603 -0.046389993
0003a0 56 95 ec bc 91 a2 e3 bc 5b 49 3e be 3e 11 bd bb
       -0.028879803 -0.027787479 -0.1858267 -0.0057698777
0003b0 c6 0a fd bd e6 bc 25 3e 8b 4a 5e bd 94 7e eb bd
       -0.123555705 0.1618534 -0.05427031 -0.11498752
0003c0 0d 32 fd bd 42 8b 8d 3d 93 5c a8 3d d2 aa 52 bd
       -0.12363062 0.06911327 0.08220782 -0.05143244
0003d0 6e 63 94 3d 6b b9 e8 ba 95 36 2b be 6d 7c ec bd
       0.07245527 -0.0017755454 -0.1672004 -0.1154717
0003e0 d2 7e 5c bd b9 e0 16 be 41 bf 85 bc f5 da cb bd
       -0.053831883 -0.14734162 -0.016326549 -0.09953872
0003f0 17 50 23 be aa 50 27 3e d3 30 38 be 91 2b d1 3d
       -0.1594852 0.16339365 -0.17987375 0.10213388

diffop.mp2.message_bound_int.bias f4 [16]
000000 0a 3d f3 3d 20 71 0e be aa 4f 9f 3d e7 39 1b 3c
       0.11876877 -0.13910341 0.077788666 0.009474254
000010 ac 1f 58 bc cb 66 84 3d ad 57 3d bd f8 9c 2e bd
       -0.013191145 0.06464919 -0.046226192 -0.042630166
000020 af 54 5c 3d 3a 92 39 3d 8a b3 25 bd b2 2d 21 be
       0.053791698 0.04530547 -0.040454425 -0.15740088
000030 bb bc 08 be a4 87 17 bd 16 93 8d bd 04 06 05 be
       -0.13353245 -0.03699459 -0.0691282 -0.12990576
